pyFaceSeg/Dnc_SINet_bi_320_256.onnx (onnx, 421563 bytes, 335 tensors)

949 f4 [12, 1, 1]
0	0x0002b127	2.47221e-40
1	0x3f16e3bc	0.58941245
2	0xbdcf87b9	-0.10133309
3	0x85284924	-7.912756e-36
4	0x3f4dce43	0.80392855
5	0x3f238038	0.6386752
6	0x3f9af85f	1.2107047
7	0x2008227a	1.1531055e-19
8	0x3fa79b70	1.3094311
9	0x3e86af68	0.263057
10	0x3e6a021d	0.22852369
11	0x3c8995cd	0.016795063

950 f4 [16, 1, 1]
0	0x3786f1aa	1.6086578e-05
1	0x3f11ff8e	0.5703057
2	0x3ecee1c5	0.40406623
3	0xbe958222	-0.29200846
4	0xbda78d17	-0.081812076
5	0x3dff4861	0.12464977
6	0x3ab4056d	0.0013734527
7	0x3f145537	0.5794253
8	0x3e7bd5c2	0.24593261
9	0x3f31e6f5	0.6949304
10	0x3ea2b083	0.31775293
11	0x3f05f532	0.52327263
12	0x38f88cb4	0.000118517695
13	0xbe42675c	-0.18984741
14	0x179d8a2f	1.018077e-24
15	0x35075dff	5.04282e-07

951 f4 [24, 1, 1]
0	0xbe8dd6b5	-0.2770287
1	0x0b71e171	4.6584515e-32
2	0x3f365711	0.712266
3	0x3ec71bc1	0.38888362
4	0x3ed16678	0.4089849
5	0x3ebb7cba	0.36618596
6	0x3f1288ad	0.572398
7	0x3e2530be	0.16131875
8	0xbdc24b40	-0.09487009
9	0x3f1c355c	0.6101892
10	0x3f3c1cc4	0.7348139
11	0x3ecb4113	0.39698085
12	0x3f15fd15	0.585893
13	0xbea5763a	-0.32316762
14	0xbf30b1fa	-0.6902157
15	0xbb5a8e6c	-0.003334905
16	0xbda6c922	-0.08143832
17	0x3e2fe2a2	0.17176297
18	0x3eacf794	0.33782637
19	0xbd881a65	-0.06645659
20	0x3e99b3e2	0.30020052
21	0xbe33b36f	-0.17548917
22	0xbe419de1	-0.18907882
23	0x3e1cdcf4	0.15318662

952 f4 [24, 1, 1]
0	0x3edb26cf	0.42803046
1	0x1ad4520a	8.7813686e-23
2	0x3ef3d4b3	0.47623214
3	0xbe9bca2d	-0.30427685
4	0x3eb53d44	0.35398304
5	0xbec69851	-0.38788083
6	0x3cfa6d4e	0.030569699
7	0x3ed076ac	0.4071554
8	0x3e05394d	0.1301014
9	0x3f7faffd	0.9987791
10	0x3f2543de	0.6455668
11	0xbeaa04f8	-0.33206916
12	0xbe5dbb94	-0.21653587
13	0xbf43902f	-0.7639188
14	0xbe07deac	-0.13268536
15	0xbe19e0a6	-0.15027103
16	0x3d8846a8	0.066541016
17	0x3bc21826	0.005923289
18	0x3e61e082	0.22058299
19	0x3e8597af	0.26092288
20	0xbc836301	-0.01603842
21	0x3e889b68	0.26681066
22	0x3da50d77	0.08059209
23	0xbea94510	-0.33060503

953 f4 [48, 1, 1]
0	0x3c66a3f3	0.0140771745
1	0xbced86a9	-0.028994875
2	0xbf24d16b	-0.64382046
3	0xbe0e20a5	-0.1387964
4	0x3d5e129b	0.054216962
5	0xbed8de0e	-0.42356914
6	0xbedf45d0	-0.4360795
7	0x3cbf91b9	0.023384916
8	0x3d3497f9	0.044090245
9	0xbe65706e	-0.2240617
10	0x3d2d0ac1	0.042246584
11	0x3e0bbcd4	0.13646251
12	0x3be07398	0.0068497173
13	0xbe7794c5	-0.24177845
14	0xbe80ce8f	-0.25157592
15	0xbe514467	-0.2043625
16	0xbc9f0dab	-0.019415697
17	0xbe2342d9	-0.15943469
18	0x3df7e59f	0.121043436
19	0xbee60c9b	-0.44931492
20	0xbf301c73	-0.6879341
21	0x3dabffda	0.08398409
22	0xbe69c31c	-0.22828335
23	0x3e7f1392	0.24909809
24	0xbdc0e721	-0.09419084
25	0xbe6a2b5d	-0.22868104
26	0x3e2be6b3	0.16787224
27	0xbdaf7c8d	-0.08568678
28	0xbc5c6366	-0.013451433
29	0x3c8bd426	0.017068934
30	0x3ceb8494	0.028749742
31	0xbdd6cd51	-0.1048838
32	0x3e83e5c4	0.25761235
33	0xbe831263	-0.25599965
34	0xbaf4509b	-0.0018639745
35	0xbe66c54c	-0.225362
36	0xbd70baee	-0.05877202
37	0x3e401c34	0.18760759
38	0xbde44f95	-0.111479916
39	0xbe2158ff	-0.15756606
40	0x3e037f7e	0.12841603
41	0xbdfc7251	-0.123264916
42	0xbeb4fac7	-0.35347578
43	0x3d0b485d	0.034004558
44	0x3e2e3b90	0.17014909
45	0xbd8510d5	-0.06497351
46	0x3cdf9f8a	0.027297754
47	0xbed9b0ac	-0.42517602

954 f4 [24, 1, 1]
0	0xbee622d5	-0.4494845
1	0xbf0c71a7	-0.5486092
2	0xbdc3d298	-0.09561652
3	0xbead5051	-0.3385034
4	0xbeb6ddfc	-0.35716236
5	0xbf57440c	-0.84088206
6	0xbde33797	-0.11094587
7	0xbe1e3e83	-0.15453534
8	0x3ea103df	0.31448266
9	0xbf11726d	-0.56815225
10	0xbd5ee676	-0.054419003
11	0xbeca95cd	-0.39567414
12	0x3ef85571	0.48502687
13	0x3d34d204	0.0441456
14	0xbf3651ed	-0.7121876
15	0x3eadec77	0.3396947
16	0x3e7a8c6a	0.24467626
17	0x3df7d0c9	0.121003695
18	0xbf3d563a	-0.73959696
19	0x3d84e5d7	0.06489151
20	0x3ec6b5fd	0.3881072
21	0x3db775b5	0.08957998
22	0x3e70e5d3	0.23525171
23	0xbe624061	-0.22094871

955 f4 [24, 1, 1]
0	0xbef5c21a	-0.4799965
1	0xbdf6c255	-0.12048785
2	0x3d65629b	0.05600224
3	0xbea7a6db	-0.32744488
4	0xbf1010ce	-0.5627564
5	0xbd70f896	-0.05883082
6	0x3e849905	0.25897995
7	0x3f409e5a	0.75241625
8	0xbe9cfde0	-0.3066244
9	0xbf064d74	-0.52461934
10	0x3f1816c3	0.5940973
11	0xbdf3cecc	-0.11904678
12	0xbe30da5a	-0.17270795
13	0xbda38f5b	-0.07986327
14	0xbf0302a2	-0.5117589
15	0x3e24e75f	0.16103886
16	0xbf01f64b	-0.5076644
17	0xbeefc986	-0.46833438
18	0xbf204def	-0.6261892
19	0xbddf9de0	-0.10918784
20	0x3e9842cd	0.29738465
21	0xbb9b3c90	-0.004737444
22	0xbf1d1cee	-0.6137227
23	0xbf110b26	-0.56657636

956 f4 [48, 1, 1]
0	0xbe70efc9	-0.23528971
1	0xbec4ea50	-0.38460016
2	0x3bc207ab	0.0059213242
3	0x3c63d4aa	0.0139056835
4	0xbe25fd65	-0.16209944
5	0xbeb8eb24	-0.36116898
6	0x3c8512a3	0.016244238
7	0xb90d9a8c	-0.00013504381
8	0x3c7a3d39	0.015273386
9	0xbc0beecc	-0.00854082
10	0x3f1c23ce	0.60992134
11	0x3e4d548f	0.20051788
12	0xbb53aabf	-0.0032297818
13	0xbdc90141	-0.09814692
14	0xbe3f1d3d	-0.18663497
15	0x3d3a5f43	0.045501005
16	0x3e57e33a	0.21082774
17	0x3d9507c6	0.07276873
18	0x3ccebc58	0.025236294
19	0xbd8d90d9	-0.06912393
20	0x3c014e66	0.007892227
21	0x3e5eb706	0.21749505
22	0x3e09c8e6	0.13455543
23	0xbdb0b4ea	-0.086282566
24	0xbf070f56	-0.52757776
25	0x3de394fe	0.111124024
26	0x3eb4d4a1	0.35318473
27	0x3ea1896a	0.3155015
28	0x3c8c4583	0.01712299
29	0x3cec6d48	0.028860703
30	0xbef7a9b2	-0.48371655
31	0xbddc1551	-0.10746253
32	0x3bb94e9b	0.0056551225
33	0x3befc6a5	0.0073173814
34	0xbd62c867	-0.0553669
35	0xbda54a61	-0.08070827
36	0xbe5a36c0	-0.21309948
37	0x3dc1a5ff	0.09455489
38	0x3c03b539	0.008038812
39	0x3e669c95	0.22520669
40	0xbe26dc9f	-0.16295098
41	0xbde16f77	-0.11007588
42	0xbd0c4dc7	-0.03425386
43	0x3cf25334	0.02958069
44	0xbcb1e1cc	-0.021714114
45	0xbe6d5c3f	-0.2317972
46	0xbbea6e7f	-0.0071542854
47	0x3ea3bb4a	0.31978828

957 f4 [64, 1, 1]
0	0x21ca6f7c	1.3717562e-18
1	0xbf00ff78	-0.50389814
2	0xbf19579d	-0.5989931
3	0x3e069056	0.13140997
4	0xbec284b7	-0.37991878
5	0xbc01df52	-0.007926779
6	0x3e956565	0.2917892
7	0x3e9108f6	0.2832715
8	0x80022910	-1.98401e-40
9	0x3ce9c3e6	0.028535794
10	0xb75de002	-1.3224782e-05
11	0x27d94e07	6.0314197e-15
12	0x23944a5a	1.6077681e-17
13	0x3e44e211	0.19226862
14	0xbd882091	-0.066468365
15	0x168a9fe0	2.2395998e-25
16	0x3ec13974	0.37739146
17	0x3ea6a6c5	0.3254911
18	0x3f0f7dc7	0.56051296
19	0x3ec0e4bd	0.37674513
20	0x3eb3f707	0.35149404
21	0x3eeb9821	0.46014503
22	0x3f0d4c26	0.5519432
23	0x3e78fc75	0.24315055
24	0x3e9e55ac	0.30924737
25	0xbe70843f	-0.23487948
26	0xbf09f965	-0.5389617
27	0x3ea862d9	0.32887915
28	0x3e084bda	0.13310185
29	0x3eee8f03	0.46593484
30	0x3ebf86de	0.37407583
31	0x3e82f3b2	0.2557655
32	0x3f03955e	0.5139979
33	0x3052ee78	7.673644e-10
34	0xbf19cc33	-0.6007721
35	0x3ea9d15b	0.33167538
36	0x3eaa6bd0	0.3328538
37	0x3eb038ca	0.34418327
38	0x3d33e2ad	0.043917347
39	0x3e8a96cc	0.27068174
40	0x3f3b27c3	0.73107547
41	0x3d52a1f6	0.05142399
42	0x3efafa8d	0.4901928
43	0x3ee99733	0.45623168
44	0x3ed93abb	0.4242762
45	0x3ed0d58e	0.4078793
46	0x3ecc4f76	0.39904374
47	0x3f256bf5	0.64617854
48	0xbe038f3d	-0.1284761
49	0x3e538b23	0.20658545
50	0x3ee30424	0.44339097
51	0x3e67c9d9	0.22635593
52	0x3ec75cd9	0.38938025
53	0x3e7243fb	0.23658745
54	0x3e85237f	0.26003644
55	0x3e429e14	0.19005615
56	0x3eca7517	0.39542457
57	0xbbb2fbeb	-0.00546216
58	0x3ee9f463	0.45694265
59	0x3ee0f51e	0.4393701
60	0x3e988f70	0.29796934
61	0x3e9cd607	0.3063204
62	0x3ea30b79	0.3184469
63	0x3ea499f3	0.32148704

958 f4 [48, 1, 1]
0	0x3f03e2b0	0.5151777
1	0x3e23b095	0.1598533
2	0x3e74d105	0.2390786
3	0x3eb6aba9	0.3567784
4	0xbe976e81	-0.29576495
5	0xbc0579a3	-0.008146676
6	0xbde3172c	-0.11088404
7	0xbef963fb	-0.48709092
8	0x3d83cc9f	0.06435513
9	0xbd03d2b4	-0.032183364
10	0x3dcc372f	0.09971463
11	0x3c5a5fc9	0.013328501
12	0x3ecd4f4a	0.40099555
13	0xbda9f9d5	-0.08299605
14	0xbe41f59a	-0.18941346
15	0xbea45355	-0.32094827
16	0x3dd24c15	0.10268418
17	0x3aaab761	0.0013024622
18	0xba053bdb	-0.00050824665
19	0x3d76a9ab	0.0602204
20	0x3cb106c4	0.021609671
21	0x3ef1af06	0.47203845
22	0x3f0a17c5	0.5394252
23	0xbee0e93f	-0.43927953
24	0x80057dbc	-5.04282e-40
25	0x8007373d	-6.62664e-40
26	0xbea3e9cd	-0.32014313
27	0x3f04d03a	0.5188023
28	0x3dcd4fab	0.10024961
29	0x3d54f350	0.051989853
30	0x80077b56	-6.87093e-40
31	0xbac617d0	-0.0015113298
32	0x3e81f8a0	0.25384998
33	0xbd1e64a0	-0.038670182
34	0x3df627bc	0.120192975
35	0x3d5f7fa1	0.054565076
36	0x3ebcb253	0.368548
37	0x3e7083b0	0.23487735
38	0xbe1dbab3	-0.15403251
39	0x3eb540b4	0.35400927
40	0xbe6ac073	-0.22924976
41	0xbe3a3a00	-0.18186188
42	0xbe32fb40	-0.17478657
43	0xbdbbf2dd	-0.09177182
44	0x3f2bc7f1	0.6710196
45	0x3e3022ca	0.17200771
46	0xbe37d39c	-0.17951816
47	0xbe0d61a3	-0.13806777

959 f4 [48, 1, 1]
0	0xbf092a7d	-0.53580457
1	0xbf186e4b	-0.59543294
2	0x3daf7ece	0.08569108
3	0x3e646472	0.22303942
4	0x3e9adeef	0.3024821
5	0x3e9c8304	0.30568707
6	0x3f051ba9	0.5199533
7	0xbdc7637b	-0.09735771
8	0x3de24739	0.11048741
9	0x3f1dad8b	0.6159293
10	0xbeb13478	-0.34610343
11	0xbdd41736	-0.1035599
12	0x3f0fefc7	0.56225246
13	0x3f1e045c	0.617254
14	0x0002b9a0	2.5026e-40
15	0xbf27db23	-0.6556875
16	0xbd5703b0	-0.05249375
17	0x3d111fec	0.035430834
18	0xbc849483	-0.016184097
19	0x3ef48961	0.47761062
20	0x3e0cecbe	0.13762185
21	0x3dcf3661	0.10117794
22	0xbcaa822c	-0.020814024
23	0xbd39af09	-0.045332942
24	0x3f19a328	0.6001458
25	0x3f1b5b59	0.6068626
26	0x3ecd24da	0.40067178
27	0x3e9d9b38	0.30782485
28	0xbf23c151	-0.6396685
29	0xbf18bede	-0.5966624
30	0xbec86087	-0.39136145
31	0x3e3a9861	0.1822219
32	0x3f4dd709	0.8040624
33	0xbe17d016	-0.14825472
34	0x3e7241b2	0.23657873
35	0xbaf13b4c	-0.0018404513
36	0x3e1bf296	0.15229258
37	0xbe069690	-0.13143373
38	0xbf02ee48	-0.5114484
39	0x3eb60e08	0.3555758
40	0x3f2b1300	0.66825867
41	0x3e88dc34	0.26730502
42	0xbf0581d5	-0.5215123
43	0x3e599ce6	0.21251258
44	0x3e291601	0.165123
45	0x3e8a0798	0.2695892
46	0xbea95f26	-0.33080405
47	0x3e041a19	0.1290058

960 f4 [48, 1, 1]
0	0x3c893cd7	0.016752644
1	0xbf244c5d	-0.6417902
2	0xbeb520e2	-0.3537665
3	0x3f35fc16	0.7108778
4	0xbf0602ff	-0.5234832
5	0x3cd343a5	0.025789091
6	0xbd606886	-0.05478718
7	0xbea178bd	-0.31537428
8	0xbde512e8	-0.11185247
9	0xbdd53731	-0.104109176
10	0xbd9961da	-0.07489367
11	0xbf0ad2ac	-0.5422771
12	0x3e80bdcf	0.25144812
13	0x3f0cdf07	0.5502781
14	0xbeaf18d9	-0.34198645
15	0xbe892855	-0.26788583
16	0x3f187cab	0.5956523
17	0xbe99e11c	-0.30054557
18	0x3e20f8fe	0.15719983
19	0xbd8e5b02	-0.06950952
20	0x3e812bfa	0.25228864
21	0x3ebc2849	0.36749485
22	0xbf370bcb	-0.7150237
23	0x3e766019	0.24060096
24	0x3ea45090	0.32092714
25	0xbd3d5808	-0.04622653
26	0xbdf62f7f	-0.12020778
27	0x3cbd12a1	0.023080172
28	0xbe28d59a	-0.16487733
29	0xbf3bd3d8	-0.7337012
30	0xbf5cdb1c	-0.86271834
31	0x3dc6a7be	0.09699963
32	0x3d072a82	0.032999523
33	0xbe828c1c	-0.2549752
34	0xbeacce5e	-0.33751196
35	0xbf4b00e0	-0.7929821
36	0x3f3eedff	0.74581903
37	0xbe568c15	-0.20951875
38	0xbf323aeb	-0.6962115
39	0x3e177b4c	0.14793128
40	0xbf0d8b6c	-0.55290866
41	0x3ec64a62	0.38728625
42	0xbf647747	-0.892445
43	0x3e90f5cb	0.28312525
44	0xbf4644c8	-0.774487
45	0xbedcb70b	-0.431084
46	0x3ec7a9c8	0.3899672
47	0xbeb02375	-0.34402052

961 f4 [96, 1, 1]
0	0xbeaec4f9	-0.34134653
1	0x3e930b37	0.28719494
2	0xa253243c	-2.8615015e-18
3	0xbe1230dc	-0.14276451
4	0xbe681650	-0.22664762
5	0xbe3d8ecb	-0.18511502
6	0xbec337f5	-0.3812863
7	0x3f0090f0	0.5022116
8	0x3e03ea25	0.12882288
9	0xbf03696d	-0.5133274
10	0x3eaaefe8	0.3338616
11	0x3e5b04c7	0.21388541
12	0xbeca7cc6	-0.3954832
13	0xbedc4c98	-0.43027186
14	0xbe1b2142	-0.15149406
15	0xbe4e48c3	-0.20144944
16	0xbcf55aa8	-0.029950455
17	0x3d5fadd2	0.054609127
18	0xbe95d7d2	-0.2926622
19	0x3e07992f	0.13242029
20	0x3e4bde89	0.19909109
21	0x3e26c91c	0.16287655
22	0x3d4cdcca	0.05001525
23	0xbb239c19	-0.0024964868
24	0x3e85086a	0.25982982
25	0x3f03ae5f	0.51437944
26	0xbd6099ab	-0.05483405
27	0xbe8ee12a	-0.27906162
28	0xbcf15758	-0.029460594
29	0xbec13239	-0.3773363
30	0x3e8c7df6	0.2743985
31	0xbd641351	-0.055682484
32	0xbecd97a5	-0.40154758
33	0xbe9c412a	-0.30518466
34	0x3e9085c9	0.2822707
35	0xbe92f65c	-0.28703582
36	0x3d0f31a6	0.034959458
37	0xbdabe718	-0.08393687
38	0x3db2c440	0.08728838
39	0xbe59a408	-0.21253979
40	0x3e8109b4	0.25202715
41	0x3eb20ecc	0.34776914
42	0x3c5d9fe1	0.013526888
43	0xbe71328b	-0.23554437
44	0xbe810de4	-0.2520591
45	0x3e10aa7e	0.14127538
46	0xbd8c6c3d	-0.06856582
47	0x3d969a4f	0.07353651
48	0xbdcdd420	-0.10050225
49	0x3e8e81c7	0.27833387
50	0xbee181c7	-0.44044325
51	0xbe7b7757	-0.24557243
52	0xbe63d979	-0.22250928
53	0xbdf7f75e	-0.121077284
54	0xbed28f5a	-0.41124994
55	0xbe2f09f5	-0.17093642
56	0x3dd6fb6b	0.10497173
57	0xbb3ff0f4	-0.0029287906
58	0xbe9f298b	-0.31086382
59	0xbee23ea8	-0.44188428
60	0xbe940caa	-0.28915912
61	0xbe43a3d3	-0.19105463
62	0x3d5ea182	0.054353245
63	0xbc39af94	-0.011333365
64	0xbe8fc3b3	-0.28078994
65	0xbe1f467f	-0.15554236
66	0xbe1d3afa	-0.15354529
67	0xbdb9e65e	-0.09077142
68	0x3d82ba9a	0.06383248
69	0xbe3451d5	-0.17609341
70	0xbbd85c80	-0.0066028237
71	0xbed466f3	-0.41484794
72	0xbe7ed17c	-0.248846
73	0xbe990050	-0.2988305
74	0x3c95de1d	0.018294388
75	0xbe5dd715	-0.21664079
76	0xbdc16ae0	-0.09444213
77	0xbdda5052	-0.10659851
78	0x3e38dfdd	0.18054147
79	0xbdf55859	-0.119797416
80	0xbdbd2e32	-0.09237327
81	0x3d423d36	0.047421657
82	0xbc7e8e9f	-0.015536933
83	0xbda7378a	-0.0816489
84	0xbe24411b	-0.16040461
85	0xbd7640a2	-0.060120232
86	0xbeb67a8d	-0.35640374
87	0xbe2aa720	-0.16665316
88	0xba008a16	-0.0004903389
89	0xbc604a48	-0.013689585
90	0x3e43c147	0.19116698
91	0xbcbe3292	-0.023217473
92	0xbd9c0d56	-0.07619731
93	0xbed23ebe	-0.41063493
94	0xbe776a3a	-0.24161616
95	0xbe6f30dd	-0.23358484

962 f4 [48, 1, 1]
0	0xbdd603b3	-0.10449924
1	0xbe260e3d	-0.16216369
2	0xbebfe077	-0.3747594
3	0xbf08bb49	-0.53410774
4	0xbe292967	-0.165197
5	0x3ed343ed	0.4126276
6	0x3d5abb7e	0.053401463
7	0xbe5bdd9c	-0.21471256
8	0x3e3cb5af	0.18428682
9	0xbd6ab0ea	-0.057297625
10	0xbe7bcf91	-0.24590899
11	0xbcd2c7f4	-0.02573011
12	0xbec53f4d	-0.38524857
13	0x3df8a08a	0.121399954
14	0xbf097bfc	-0.5370481
15	0x80087828	-7.77788e-40
16	0xbea462b9	-0.3210657
17	0xbdf10080	-0.117676735
18	0xbd097345	-0.033557195
19	0x3e9ffbe1	0.31246856
20	0x3ebb67b8	0.3660257
21	0x3cce146c	0.025156222
22	0xbe8864ad	-0.2663931
23	0x3e031937	0.12802587
24	0xbef25564	-0.47330773
25	0x3e3b887a	0.1831378
26	0x3d5414c7	0.051777627
27	0xbde891f5	-0.11355964
28	0x3e6bf842	0.23043922
29	0x3ea670d8	0.32507968
30	0x3eee86e2	0.46587282
31	0xbde707aa	-0.11280759
32	0x3ea42704	0.32061017
33	0x3f1c3797	0.61022323
34	0x3de3ae72	0.11117257
35	0xbcfa9c23	-0.03059203
36	0xbe60403a	-0.218995
37	0x3c87d8ef	0.016582934
38	0xbef1d749	-0.47234562
39	0x3e874e10	0.26426744
40	0xbea457fa	-0.3209837
41	0x3e82e1b9	0.25562838
42	0x3e6f6ab5	0.23380549
43	0x3e6a4ba8	0.22880423
44	0x3e7ab484	0.24482924
45	0x3d11749b	0.035511594
46	0x3e858b63	0.26082906
47	0xbcaf3ce3	-0.021391338

963 f4 [48, 1, 1]
0	0xbd81ed2e	-0.063440666
1	0xbe82a394	-0.25515425
2	0x3dbd5607	0.09244924
3	0xbeeb7bec	-0.45992982
4	0x3ebdddd4	0.37083304
5	0x3e200bb7	0.15629469
6	0xbd8b3541	-0.06797267
7	0xbed1ccb8	-0.409765
8	0xbeaaa339	-0.33327654
9	0x3d9a49f9	0.075336404
10	0x3ecbf343	0.3983403
11	0xbe0d1fd7	-0.13781677
12	0xbf141e9e	-0.5785922
13	0x3ea2ec14	0.31820738
14	0xbdbfe248	-0.093693316
15	0xbe18ca64	-0.14920956
16	0xbe68341a	-0.22676125
17	0x8000194c	-9.075e-42
18	0xbed38ff1	-0.41320756
19	0xbf0dfc5d	-0.554632
20	0x3e9ef76e	0.3104815
21	0xbd8f399e	-0.069934115
22	0xbe9e6633	-0.30937347
23	0x3dfbcce7	0.122949414
24	0xbf1a751d	-0.6033495
25	0xbe55ab1e	-0.20866057
26	0x3e172b0f	0.1476252
27	0x3e4ca2f6	0.1998404
28	0x3f0a0cac	0.53925586
29	0xbe1ecad4	-0.1550706
30	0x3c4ac56d	0.012376172
31	0x3d6ce5d6	0.057836376
32	0xbe1b3f32	-0.15160826
33	0x3e9acc72	0.30234104
34	0x3e9e8c82	0.30966574
35	0xbeadc452	-0.33938843
36	0xbe33e4bc	-0.17567724
37	0x3dfca2ee	0.12335764
38	0xbea4db94	-0.32198775
39	0xbe4c54ee	-0.19954273
40	0xbed438b3	-0.41449508
41	0x3ccbeb7d	0.024892563
42	0xbdb66244	-0.089054614
43	0x3dc3b48a	0.095559195
44	0x3e786a4f	0.24259304
45	0x3eb2e141	0.3493748
46	0xbe46c6f2	-0.19411829
47	0xbe6ca7fd	-0.23110957

964 f4 [96, 1, 1]
0	0xbe29323d	-0.1652307
1	0xbe71c3f8	-0.23609912
2	0xbd8b5b86	-0.06804566
3	0xbeb8b029	-0.360719
4	0xbe3a8744	-0.18215662
5	0xbe03ca6a	-0.12870184
6	0xbd81e538	-0.06342548
7	0x3d0e581c	0.034751996
8	0xbbf2aeb5	-0.0074060806
9	0xbd8c2ebe	-0.06844853
10	0x3d899137	0.06717151
11	0xbd8eb456	-0.0696799
12	0x3a055229	0.000508579
13	0xbe7c2c95	-0.24626382
14	0xbe1d274e	-0.15347025
15	0xbd6086a2	-0.054815896
16	0xbc491430	-0.0122728795
17	0xbe0ca90a	-0.13736358
18	0xbcec8a61	-0.028874578
19	0xbeace43e	-0.33767885
20	0xbe000f0d	-0.12505741
21	0xbe1de04a	-0.1541759
22	0xbe22036f	-0.15821622
23	0x3dddf165	0.10837058
24	0x3c1ca4cc	0.009560775
25	0x3f14eaa6	0.58170545
26	0x3e9cc81e	0.30621427
27	0xbd5216d8	-0.051291317
28	0xbd91fa00	-0.07127762
29	0x3c40e55b	0.011773433
30	0x3e0bb927	0.13644849
31	0xbdfa1a45	-0.12212042
32	0xbda9e1dd	-0.08295033
33	0xbbb0965c	-0.005389018
34	0xbe933e7a	-0.28758603
35	0x3db16fbc	0.0866389
36	0xbe2643ea	-0.16236845
37	0x3d652b06	0.055949233
38	0xbee64e80	-0.44981766
39	0xbec25d96	-0.37962025
40	0xbf032303	-0.512253
41	0xbe414431	-0.18873669
42	0xbddc708c	-0.10763654
43	0x3e2121d7	0.15735565
44	0xbe8b8548	-0.27250123
45	0xbe6ed8b7	-0.23324858
46	0xbe0d92dc	-0.13825554
47	0xbe08b056	-0.13348517
48	0xbe481f6c	-0.19543236
49	0xba439d0e	-0.00074620626
50	0xbd8187e5	-0.06324748
51	0x3b23a00d	0.0024967224
52	0xbd36e193	-0.044648718
53	0xbe39820b	-0.18116014
54	0xbe00c848	-0.12576401
55	0xbe8f6f1e	-0.28014463
56	0xbdf65305	-0.120275535
57	0x3d41b8ea	0.04729549
58	0xbd32fc0f	-0.043697413
59	0xbea52049	-0.32251194
60	0xbd84899a	-0.06471558
61	0xbea3652a	-0.3191312
62	0xbe85c8ee	-0.2612986
63	0xbded0e73	-0.115750216
64	0xbeb71763	-0.3576003
65	0xbbf38f17	-0.007432829
66	0xbd6ac66e	-0.057318144
67	0xbcaf6212	-0.021409068
68	0xbe0b8523	-0.13625006
69	0x3db45d60	0.08806872
70	0x3d879c7d	0.06621645
71	0x3d910aae	0.07082115
72	0xbd6a9920	-0.057274938
73	0x3d0dcca5	0.034618992
74	0xbe80c00c	-0.2514652
75	0xbe0cc009	-0.1374513
76	0xbdd3a822	-0.10334803
77	0xbda706f4	-0.08155623
78	0x3dc5aeaa	0.09652455
79	0xbd18454f	-0.037175473
80	0xbd2a4f85	-0.041579742
81	0x3cc2c269	0.023774343
82	0xbdb58582	-0.08863355
83	0xbe33a00d	-0.17541523
84	0xbe8380df	-0.25684258
85	0x3d53b18d	0.051682997
86	0xbdb8eb5b	-0.090292655
87	0xbd894177	-0.067019396
88	0xbeaa545a	-0.3326748
89	0x3ded4e73	0.115872286
90	0xbe19c301	-0.15015794
91	0xbd1b92f4	-0.037981942
92	0xbdf7885e	-0.12086557
93	0xbe82da07	-0.25556967
94	0xbc9057ad	-0.017619932
95	0xbe31b352	-0.17353562

965 f4 [48, 1, 1]
0	0x3e3084f5	0.17238219
1	0xbe0a27a0	-0.13491678
2	0x3e214f8c	0.15753001
3	0x3d0d35c6	0.03447511
4	0x3d675ffc	0.056488022
5	0x3ee20ce6	0.44150466
6	0x3e35285d	0.17691179
7	0x3e48839c	0.19581455
8	0xbe704704	-0.2346459
9	0x800648fc	-5.77195e-40
10	0x3eb8d2e6	0.36098403
11	0x3ed1b81f	0.40960786
12	0xbdb8d8a0	-0.09025693
13	0xbe4af901	-0.1982155
14	0x3d953450	0.072853684
15	0x3df3c0cf	0.1190201
16	0xbe8b31b7	-0.27186367
17	0x3e3ac680	0.18239784
18	0xbe1df812	-0.15426663
19	0x3cf0d8f2	0.029400323
20	0xbe9312dc	-0.28725326
21	0x3e454241	0.19263555
22	0xb95ac508	-0.000208635
23	0xbf0c16af	-0.5472211
24	0x3e8573e0	0.26064968
25	0xbea39713	-0.31951198
26	0x3e945e61	0.28978255
27	0x3edf2223	0.43580732
28	0x3d2059e5	0.03914823
29	0x3d0220dd	0.031769622
30	0xbd41edae	-0.04734581
31	0x3dfcaf85	0.12338165
32	0x8002c4ae	-2.54226e-40
33	0x3ea54467	0.3227875
34	0xbe5637bb	-0.20919697
35	0xbdc13fa8	-0.094359696
36	0xbc59a722	-0.0132844765
37	0xbceb4a8b	-0.028722068
38	0xbb19fc9b	-0.0023496512
39	0x3f20093c	0.6251409
40	0xbe18a197	-0.14905392
41	0x3c3e53f9	0.0116167
42	0x3d9634aa	0.073342636
43	0x3e569ff2	0.20959452
44	0xbd395d5d	-0.045255054
45	0x3dd0aa3e	0.10188721
46	0x3e12e18a	0.14343849
47	0x3e7bd3a0	0.24592447

966 f4 [48, 1, 1]
0	0xbdf1b503	-0.11802103
1	0x3da85103	0.08218577
2	0xbd6ced37	-0.057843413
3	0x3f19d427	0.60089344
4	0xbd3ada83	-0.045618545
5	0xbe42c8cd	-0.19021912
6	0xbea202eb	-0.3164285
7	0x3e3a3d80	0.18187523
8	0x3c265313	0.010151642
9	0xbedb1313	-0.4278799
10	0x3d49ae3a	0.04923842
11	0x3bf7f1b9	0.0075666574
12	0xbde63bf0	-0.11241901
13	0xbea88189	-0.32911327
14	0x3e98437d	0.2973899
15	0x3d6bdc83	0.057583343
16	0xbd4d8548	-0.050175935
17	0xbcebe969	-0.028797822
18	0xbebc8364	-0.36818993
19	0xbd8d5caf	-0.069024436
20	0x3e86fb9f	0.26363847
21	0x3cc2f233	0.02379713
22	0x3e51284c	0.20425528
23	0xbf0e30bf	-0.5554313
24	0xbccb70ab	-0.024833998
25	0x000265dc	2.20211e-40
26	0x3cc7a196	0.024369042
27	0x3f0a3ea8	0.54001856
28	0x3da033d8	0.078223884
29	0x3c896242	0.016770486
30	0x3d7c23c2	0.06155754
31	0xbdb3e1f9	-0.08783335
32	0xbe2c4418	-0.1682285
33	0xbe4f4bd4	-0.2024377
34	0x3e65b2e0	0.22431517
35	0x3c414d35	0.011798193
36	0x3e6aa865	0.229158
37	0x3e3d561f	0.18489884
38	0xbe36d40c	-0.17854327
39	0xbe1073f8	-0.14106739
40	0xbe0c1aa7	-0.13682042
41	0x3b796e6b	0.00380602
42	0xbe5f360a	-0.21797958
43	0x3e7c70db	0.24652426
44	0xbc9b6fce	-0.018974211
45	0x3d8277cf	0.06370508
46	0x3d00c540	0.031438112
47	0xbe8da83e	-0.2766742

967 f4 [96, 1, 1]
0	0xbe51f8da	-0.20505086
1	0xbcc61bbd	-0.024183149
2	0xbebe9ba2	-0.37228113
3	0x3ec0a969	0.3762925
4	0xbe2edf50	-0.17077374
5	0xbc554eae	-0.013019247
6	0x3ee30c87	0.44345495
7	0x3cad6a7f	0.021168945
8	0xbe87b140	-0.2650242
9	0xbe0caf39	-0.13738717
10	0x3eb93262	0.36171252
11	0xbd029b0e	-0.031886153
12	0x3d92e055	0.07171694
13	0xbe03bc1d	-0.12864728
14	0xbe840a01	-0.25788882
15	0x3e4047cc	0.18777388
16	0x3e5bd979	0.21469678
17	0xbe0bf3f3	-0.13667278
18	0xbed28241	-0.41115
19	0x3d058745	0.032599706
20	0xbde81fc1	-0.113341816
21	0xbe424afa	-0.18973914
22	0x3be01d70	0.0068394467
23	0x3b397f99	0.0028304814
24	0xbd8a57a7	-0.067549996
25	0x3f06925e	0.5256709
26	0x3e01c9e7	0.12674676
27	0xbe01ad93	-0.1266387
28	0x3df5ee54	0.12008348
29	0x3e18c63a	0.14919367
30	0x3c990684	0.018679865
31	0x3d3715e0	0.044698596
32	0xbe264413	-0.16236906
33	0x3c43d42b	0.01195244
34	0x3b6151e1	0.003438108
35	0xbdf21219	-0.11819858
36	0xbcce3641	-0.025172355
37	0xbe59e8e7	-0.21280251
38	0xbe4091c5	-0.18805607
39	0xbe3cddd8	-0.18444002
40	0xbe3804f2	-0.17970636
41	0xbdd054fb	-0.10172459
42	0xbdcf35ed	-0.101177074
43	0x3daca5dc	0.08430073
44	0xbdb95bea	-0.09050734
45	0xbe044161	-0.12915565
46	0x3d666c4d	0.056255627
47	0xbd322ed3	-0.043501686
48	0xbe4dbe35	-0.2009209
49	0x3d862957	0.06550854
50	0x3df153be	0.11783551
51	0x3e27efe3	0.16400103
52	0xbe03274d	-0.12807961
53	0xbdee900a	-0.11648567
54	0xbe3c2ac2	-0.18375686
55	0xbc7737f1	-0.015089021
56	0x3e3f1dcf	0.18663715
57	0x3d335964	0.04378642
58	0xbd87d537	-0.066324644
59	0xbe3ccea2	-0.18438199
60	0xbd36d455	-0.04463609
61	0xbd97262c	-0.073803276
62	0xbe5af80d	-0.21383686
63	0xbea8963b	-0.32927117
64	0xbd9d47ce	-0.07679711
65	0xbe22808b	-0.15869348
66	0xbe53fab5	-0.20701106
67	0x3db51ea7	0.08843737
68	0x3cdb12d7	0.026742382
69	0x3d2eb056	0.042648636
70	0xbbb73dc1	-0.0055920784
71	0xbe8bee6c	-0.2733034
72	0x3e670a26	0.22562465
73	0xbc0e0a35	-0.008669426
74	0xbdafcf9a	-0.08584519
75	0xbe1faece	-0.15594026
76	0xbc880a7b	-0.01660656
77	0x3cb00a1d	0.021489197
78	0x3d8dd95d	0.069262244
79	0xbe8fb594	-0.2806822
80	0xbe365e5a	-0.1780943
81	0x3e21b4a5	0.15791567
82	0xbd901a08	-0.07036215
83	0x3ce6bc31	0.028165909
84	0xbe67be95	-0.22631295
85	0x3d932ccf	0.07186281
86	0xbe464117	-0.19360767
87	0xbcdfc891	-0.027317317
88	0xbdc56610	-0.096386075
89	0xbe6a7c14	-0.22898895
90	0xbdbc0d72	-0.09182252
91	0xbe412d35	-0.18864901
92	0xbe259b42	-0.16172507
93	0xbcb32c5b	-0.021871736
94	0x39c4782c	0.00037473568
95	0xbe61ad2d	-0.22038718

968 f4 [48, 1, 1]
0	0x3de6db0b	0.11272248
1	0x80000487	-1.624e-42
2	0x3e226d75	0.15862067
3	0xbe035854	-0.12826663
4	0x3c021efe	0.007941959
5	0x3daa1643	0.08305027
6	0x3e15b067	0.14618073
7	0x3d3e066e	0.04639285
8	0x3dc14b04	0.09438136
9	0x3e9b6588	0.303509
10	0xbd53a2f7	-0.051669087
11	0x3e6f7d12	0.23387554
12	0x3e96368f	0.293385
13	0x3ce8d95d	0.02842396
14	0x3e0020ca	0.12512508
15	0x3e743a58	0.23850381
16	0xbd26ba3a	-0.040704943
17	0x3d5189e9	0.051156912
18	0x3d5e5b22	0.05428613
19	0xbdcde88e	-0.10054122
20	0x3dfb091c	0.12257597
21	0x3d64e8bb	0.05588601
22	0x3f041a15	0.516023
23	0x3ee4a75e	0.4465894
24	0x3e9e887f	0.30963513
25	0x3dde8287	0.1086474
26	0xbccc3cde	-0.024931367
27	0x3e0d60d4	0.13806468
28	0x3dc0ed7d	0.09420297
29	0x3e8b439a	0.27200013
30	0xbe2b6d39	-0.16740884
31	0x3e0f9e8a	0.14025322
32	0xbe889494	-0.26675856
33	0x3e31ba7b	0.17356293
34	0x3b8ffe84	0.0043943543
35	0x3eade582	0.33964163
36	0x3d92fbf8	0.071769655
37	0x3de51b69	0.11186869
38	0xbe10deb0	-0.14147449
39	0x3ea1c527	0.31595728
40	0xbc6873c2	-0.014187755
41	0x3defc858	0.117081344
42	0xbe6d4055	-0.23169072
43	0xbe0f4050	-0.13989377
44	0xbd67240a	-0.056430854
45	0x3db673ef	0.08908831
46	0x3aea0bf0	0.0017856341
47	0x3dff3204	0.124607116

969 f4 [48, 1, 1]
0	0xbde383cf	-0.11109125
1	0x3e07fe2d	0.13280554
2	0x3d555310	0.052081168
3	0xbdbafbea	-0.0913008
4	0x3ec95414	0.3932196
5	0xbe1873c7	-0.14887916
6	0x3e4eced3	0.20196085
7	0x3d9db4e3	0.07700517
8	0x3dc65518	0.09684199
9	0xbe876113	-0.2644125
10	0x3ce8f8a1	0.028438868
11	0x3e682dc3	0.22673707
12	0xbd7d532b	-0.061846893
13	0x3bed9ce2	0.007251368
14	0xbd8e7fa8	-0.06957942
15	0xbdbc2215	-0.09186188
16	0x3db9e4b0	0.09076822
17	0x3ddeb73c	0.10874793
18	0xbd0d1086	-0.034439586
19	0x3e669f29	0.22521652
20	0xbe8d1b77	-0.27560017
21	0x3e7df7c1	0.24801542
22	0xbd42da45	-0.04757144
23	0x3e87d6b5	0.26530996
24	0x3e16c271	0.14722611
25	0x3d671541	0.056416754
26	0x3e8431d7	0.25819275
27	0xbcbf95e3	-0.023386901
28	0x3dc7e55d	0.097605444
29	0x3e6d73aa	0.23188654
30	0xbc2af882	-0.010435225
31	0x3e18a05c	0.14904922
32	0xbd80c35d	-0.062872626
33	0x8005c393	-5.29336e-40
34	0xbe3a81dd	-0.18213601
35	0x3ed8e034	0.42358553
36	0x3ee7dd16	0.45285863
37	0x3df4d5c9	0.11954839
38	0x3ea6747d	0.32510749
39	0x00066792	5.88167e-40
40	0x3eb87c12	0.36032158
41	0x3a967746	0.0011479638
42	0x3d22cf9d	0.039748777
43	0x3ded9baa	0.11601956
44	0x3e0cab81	0.13737299
45	0x3e642fb2	0.2228382
46	0x3eb46ce2	0.3523932
47	0xbcf67481	-0.03008485

970 f4 [96, 1, 1]
0	0xbd686549	-0.056737218
1	0xbd7dca12	-0.061960287
2	0xbc17a2f4	-0.00925516
3	0x3e7d39c3	0.24729066
4	0x3e317c06	0.17332467
5	0xbe05babd	-0.13059516
6	0xbf0be078	-0.5463939
7	0x3dc2b7f4	0.095077425
8	0xbd2708b4	-0.040779784
9	0x3d9cc532	0.076547995
10	0xbe447597	-0.19185482
11	0xbe88a5b5	-0.26688924
12	0xbe37f7fa	-0.1796569
13	0xbe02afed	-0.12762423
14	0x3ddf2520	0.10895753
15	0x3e533629	0.20626129
16	0x3bb19c85	0.00542027
17	0xbde42bb7	-0.111411504
18	0xbeb6dc19	-0.35714796
19	0xbf09dfa4	-0.53856874
20	0xbd945b1c	-0.0724394
21	0xbeac0188	-0.33594918
22	0xbdf75144	-0.12076047
23	0xbdc9b9c9	-0.09849889
24	0xbcbb3824	-0.022853918
25	0x3f381128	0.7190118
26	0xbe275a27	-0.16342984
27	0xbea1c738	-0.31597304
28	0xbe4842be	-0.1955671
29	0xbe63884b	-0.2221996
30	0x3dbdd3b0	0.09268892
31	0xbd80b787	-0.06285005
32	0x3bf52a40	0.0074818432
33	0xbec81302	-0.39077002
34	0xbe5f2eea	-0.2179524
35	0x3dd70b72	0.1050023
36	0xbe21a4aa	-0.1578547
37	0xbe068fd2	-0.131408
38	0x3e409209	0.18805708
39	0xbd8cb6d8	-0.06870812
40	0xbe1e8c0e	-0.15483114
41	0xbdb2d681	-0.087323196
42	0xbdc37147	-0.0954309
43	0xbd888841	-0.06666613
44	0x3ba847fc	0.0051355343
45	0x3d363827	0.044487145
46	0xbde734a0	-0.11289334
47	0xbdf8c4d5	-0.12146918
48	0xbe53adf9	-0.20671834
49	0x3f507f6a	0.8144442
50	0xbebf6624	-0.37382615
51	0xbe97ddf5	-0.29661527
52	0x3dbf6aa8	0.09346515
53	0xbe1f4cfb	-0.1555671
54	0xbeb4cd3b	-0.35312828
55	0xbeb53190	-0.35389376
56	0xbe37a072	-0.17932299
57	0xbe41c89a	-0.1892418
58	0xbe79a37e	-0.24378774
59	0xbde57de8	-0.11205655
60	0xbcd0116d	-0.025398934
61	0xbe7ca77b	-0.24673264
62	0xbdb70441	-0.08936358
63	0xbe57485f	-0.21023701
64	0xbcfbc840	-0.030735135
65	0xbe84f82d	-0.25970593
66	0xbec2f012	-0.38073784
67	0xbd8d2eeb	-0.068937145
68	0xbe288c18	-0.16459692
69	0x3de5ced4	0.1122109
70	0x3dd593a9	0.104285546
71	0xbe4e684f	-0.20156978
72	0xbe8daee2	-0.27672487
73	0xbe47b7d3	-0.19503717
74	0x3cd9055f	0.026491819
75	0x3dd044a5	0.10169343
76	0xbe60ce59	-0.21953715
77	0xbe6c48c6	-0.23074636
78	0x3d64616b	0.055756968
79	0x3dc2faa0	0.09520459
80	0xbe0427bb	-0.12905781
81	0xbe5bed64	-0.21477276
82	0x3c477919	0.012174868
83	0xbdecf069	-0.11569292
84	0xbcb6fde9	-0.02233787
85	0x3ea78d8d	0.32725182
86	0xbe8f629e	-0.28004926
87	0xbe865b41	-0.26241496
88	0xbcc22e14	-0.023703612
89	0xbecdb713	-0.40178737
90	0xbd4fe36e	-0.050754003
91	0x3e2eaf16	0.17058977
92	0x3db6c2d4	0.08923879
93	0xbe228002	-0.15869144
94	0xbe12410c	-0.14282626
95	0xbe5b816a	-0.21436086

971 f4 [48, 1, 1]
0	0x3e3cff76	0.18456826
1	0x3e946312	0.28981835
2	0x3cfedde8	0.031111673
3	0xbda9f48e	-0.08298598
4	0x3f2dace1	0.6784192
5	0x0005b763	5.24964e-40
6	0x3d86fb03	0.065908454
7	0x3dfd4646	0.12366919
8	0x3dda37b6	0.10655157
9	0x3e00d091	0.12579562
10	0xbe875019	-0.26428297
11	0xbe37e6e0	-0.17959166
12	0x0002f5fe	2.71916e-40
13	0x80045f3c	-4.01506e-40
14	0xbe885d4a	-0.26633674
15	0xbe341272	-0.17585161
16	0xbd35d627	-0.044393685
17	0xbe28d0ca	-0.16485897
18	0xbd16b74e	-0.036795907
19	0x3dba40eb	0.09094413
20	0x3d4bfb09	0.049799953
21	0x3e3f789c	0.18698353
22	0x3ea73ceb	0.32663664
23	0x3e279d82	0.16368678
24	0xbe26832e	-0.16260979
25	0x0006d491	6.27267e-40
26	0x3d3cf2c0	0.046129942
27	0xbe056ebf	-0.13030528
28	0x3e74f4d1	0.23921515
29	0x0006c7fe	6.22757e-40
30	0xbeb83a7e	-0.35982126
31	0x3e452eae	0.19256088
32	0x3e880c17	0.26571724
33	0x3e7e5175	0.24835761
34	0xbdf72327	-0.12067252
35	0x3e62dcd6	0.22154555
36	0xbeeb506a	-0.4595979
37	0x3d51af83	0.05119277
38	0x3e32f462	0.17476037
39	0xbc86e3c6	-0.016466033
40	0x3da469be	0.08027981
41	0x3e2cf7d7	0.16891418
42	0x3e32a058	0.17443979
43	0x3de1fd2c	0.11034617
44	0x3e843d4d	0.2582802
45	0xbd4aa7e3	-0.049476516
46	0x3e1b8d95	0.15190728
47	0xbe122e5e	-0.142755

972 f4 [48, 1, 1]
0	0x3e777252	0.24164703
1	0xbec61003	-0.3868409
2	0xbd2ebb28	-0.042658955
3	0xbe988feb	-0.297973
4	0x3f350776	0.7071451
5	0xbe76c75e	-0.2409949
6	0x3e4a4514	0.19752914
7	0xbe0b91ee	-0.13629887
8	0x3e6ec47c	0.2331714
9	0xbe62ff11	-0.22167613
10	0xbe411a39	-0.1885766
11	0xbec4c98a	-0.38435012
12	0x3e929f3c	0.2863711
13	0x3ddd0f8d	0.10793982
14	0xbc90d24d	-0.017678404
15	0x3ca86bce	0.020559218
16	0xbbb9f198	-0.005674552
17	0x3e390d99	0.18071593
18	0xbd010e7e	-0.03150796
19	0xbd7bc5ea	-0.061468042
20	0x3c1c223a	0.009529645
21	0x3d823d86	0.06359391
22	0x3dcd0605	0.10010914
23	0xbe5aa6b7	-0.21352659
24	0xbef1bb5b	-0.47213253
25	0x3f19fc99	0.6015106
26	0x3e95b31e	0.29238218
27	0xbe321c27	-0.17393552
28	0x80015399	-1.21825e-40
29	0xbeb591a1	-0.3546267
30	0xbeacf529	-0.33780792
31	0x3e45c4bb	0.19313328
32	0x3e4a6e84	0.19768721
33	0x3dc312b6	0.09525053
34	0xbe88d875	-0.26727644
35	0x3e8e7a2b	0.27827582
36	0xbea8a7ff	-0.3294067
37	0xbeb07bee	-0.3446955
38	0xbe8373f4	-0.25674403
39	0xbe56a35e	-0.20960757
40	0xbccb34eb	-0.024805507
41	0xbd96bd17	-0.07360285
42	0x3e45def2	0.19323328
43	0xbd3552d7	-0.044268455
44	0x3ebe97f1	0.37225297
45	0x3ddf7dcf	0.10912668
46	0x3e9809c9	0.29694965
47	0xbe8fda98	-0.2809646

973 f4 [96, 1, 1]
0	0xbe162c34	-0.146653
1	0x3e69eca1	0.22844173
2	0xbe4c2ecb	-0.19939725
3	0x3cb120cd	0.021622086
4	0xb8712590	-5.749386e-05
5	0xbe8ac854	-0.27105963
6	0xbe14193f	-0.14462756
7	0xbca8a1ee	-0.020585027
8	0xbe0ee895	-0.1395591
9	0xbda73932	-0.08165206
10	0xbd0c7073	-0.034286927
11	0x800215f8	-1.91552e-40
12	0xbe8c87d6	-0.27447385
13	0xbe1ae41c	-0.1512608
14	0xbdc9cf9b	-0.09854051
15	0xbe5f2891	-0.21792819
16	0x3e850f05	0.25988021
17	0x3d7905ed	0.060796667
18	0xbde2e257	-0.11078327
19	0xbc4469db	-0.011988129
20	0xbd8ed212	-0.069736615
21	0xbddad9cf	-0.10686075
22	0xbe1a570f	-0.15072273
23	0xbebf3d1b	-0.37351307
24	0x0007faf6	7.32876e-40
25	0x3dfc79ad	0.12327895
26	0x3df2cf1b	0.118559085
27	0x3cee36ef	0.029078929
28	0xbe29eb78	-0.1659373
29	0x3cc9e33c	0.024644487
30	0xbe4df79d	-0.20113988
31	0xbc01fd1a	-0.007933879
32	0xbe5d86f4	-0.21633512
33	0xbe882cd0	-0.2659669
34	0x3c2c80a0	0.010528713
35	0xbde7a816	-0.11311357
36	0xbec1a416	-0.378205
37	0x3a354244	0.00069144764
38	0x3b2f64bc	0.0026762923
39	0xbe86945a	-0.26285058
40	0x3e5c25bb	0.21498768
41	0x36fa0b0f	7.451868e-06
42	0x3d27ad1e	0.04093658
43	0xbd64e681	-0.05588389
44	0xbe311c66	-0.1729599
45	0xbe85a6fb	-0.26103958
46	0xbde060d9	-0.10955972
47	0x3d83285c	0.06404182
48	0x3be60863	0.0070200427
49	0x3d9274d6	0.07151191
50	0xbeae7f28	-0.34081388
51	0x3e1e1ffd	0.1544189
52	0x3d932382	0.07184507
53	0xbd3a7fd2	-0.045532055
54	0x3d875d8e	0.06609641
55	0x3c25fcf8	0.010131113
56	0xb9b6c129	-0.0003485766
57	0xbdfe3909	-0.12413222
58	0xbdaada38	-0.08342403
59	0xbda937a4	-0.08262566
60	0xbe0b4f1a	-0.13604394
61	0xbe61edc4	-0.22063357
62	0xbe84d14c	-0.2594093
63	0xbe975fe1	-0.29565337
64	0xbe69d753	-0.22836046
65	0xbd8abb3c	-0.067739934
66	0xbe8d15f5	-0.27555814
67	0xbdf836aa	-0.12119801
68	0xbe1af8c2	-0.15133956
69	0xbe82b6c2	-0.25530058
70	0xbddb988a	-0.10722454
71	0xbe597276	-0.2123507
72	0xbd9ee585	-0.07758621
73	0x39d0e2c9	0.0003984182
74	0xbcb07cbf	-0.021543859
75	0xbec8062c	-0.3906721
76	0xbe3e9caf	-0.18614458
77	0xbd5b9ff0	-0.053619325
78	0xbe49218c	-0.19641703
79	0x3d0e1776	0.034690343
80	0xbe15c6b1	-0.14626576
81	0x3d831f1c	0.06402418
82	0xbe82c4de	-0.25540823
83	0x3d2335dc	0.039846286
84	0xbe8a0d1f	-0.26963136
85	0xbe927aa7	-0.286092
86	0xbdc34f9c	-0.09536669
87	0x3d97bd1e	0.07409118
88	0x3d18cfa0	0.03730738
89	0x3dc6339a	0.09677811
90	0xbe8e5246	-0.27797145
91	0xbdd87377	-0.10568898
92	0xbe2abe68	-0.16674197
93	0xbe524f26	-0.20538005
94	0xbe44de72	-0.19225481
95	0xbdb50b5f	-0.088400595

974 f4 [48, 1, 1]
0	0x3e0bf8ce	0.1366913
1	0x3ec5b4cf	0.38614509
2	0xbded8218	-0.11597079
3	0x3d2029f4	0.03910251
4	0xbe2d2f55	-0.16912587
5	0xbe861022	-0.26184183
6	0x3dda6e87	0.10665613
7	0xbdd5f73c	-0.10447547
8	0xbe20b313	-0.15693311
9	0xbdc66fce	-0.09689294
10	0x3e2cf2e5	0.16889532
11	0x3ddd2a79	0.10799117
12	0x3c351d25	0.011054312
13	0x3e2ca71c	0.16860622
14	0x3eab2933	0.3342987
15	0xbdd31887	-0.103074126
16	0x3e8a85b8	0.27055144
17	0xbe0fba55	-0.14035924
18	0x3d51f09a	0.051254846
19	0xbea19d0a	-0.31565124
20	0x3e1ca61f	0.15297745
21	0xbe17806e	-0.14795086
22	0xbea05d0f	-0.31320998
23	0x3e86d5d0	0.26335
24	0x3e848b77	0.25887653
25	0xbdb185cc	-0.08668098
26	0xbe13bbe2	-0.1442714
27	0x3d86db55	0.06584803
28	0x3e8feaa4	0.28108704
29	0xbe1c5463	-0.15266566
30	0xbdeca7a9	-0.11555416
31	0x3d6ff89b	0.058586698
32	0x3e637f13	0.22216444
33	0xbd29037f	-0.0412631
34	0xbe6c4414	-0.23072845
35	0x3f1f1c9e	0.6215304
36	0xbdd8d2f7	-0.10587113
37	0x3e44b9de	0.19211528
38	0x3e5e76e3	0.21725039
39	0x3d3d6c5e	0.046245925
40	0x3ebb3a0d	0.36567727
41	0xbeb55967	-0.3541977
42	0x3d36f0f5	0.04466339
43	0x3df7141f	0.12064385
44	0x3e68dc0e	0.22740194
45	0xbbfe2acd	-0.007756567
46	0xbe96079b	-0.29302678
47	0x3d365591	0.044515196

975 f4 [48, 1, 1]
0	0xbc7ca937	-0.015421203
1	0x3e280c34	0.16410905
2	0xbe5a4a93	-0.2131751
3	0x3bbbf69f	0.0057361866
4	0x3e21ef52	0.1581395
5	0x3b94fe4d	0.0045469166
6	0x3e37a00a	0.17932144
7	0xbe1da19b	-0.15393679
8	0xbe7bd642	-0.24593452
9	0xbd597834	-0.05309315
10	0x3e15341f	0.14570664
11	0x3e2f09e0	0.17093611
12	0xbe98b987	-0.29829046
13	0x3e0a42d4	0.13502055
14	0x3da45dce	0.08025704
15	0x3e6b9fcb	0.23010175
16	0x3e1297c1	0.14315702
17	0x3ec3f078	0.382694
18	0x3e83bec1	0.2573147
19	0xbeecf104	-0.4627763
20	0xbd169795	-0.036765654
21	0xbe4b6278	-0.19861782
22	0x3f3ce5a4	0.73787904
23	0x3e8334de	0.25626272
24	0xbcde8eba	-0.027167667
25	0xbe5489c2	-0.20755675
26	0x3e50d39b	0.20393221
27	0xbd9a1c18	-0.0752489
28	0x3e3fd048	0.18731797
29	0xbdf7582f	-0.120773666
30	0xbe7719a8	-0.24130881
31	0xbe5363b5	-0.20643504
32	0x3f426b17	0.75944656
33	0x3dd76076	0.10516445
34	0x3bc88823	0.0061197444
35	0x3f00f474	0.50373006
36	0xbe211400	-0.15730286
37	0x3deb7970	0.11497772
38	0x3e075baa	0.13218561
39	0xbe191fb9	-0.14953507
40	0x3ef4b4b7	0.47794124
41	0x3d86f14a	0.06588991
42	0x3e43d013	0.19122343
43	0x3e3a1ccc	0.18175048
44	0x3e079bf9	0.13243093
45	0xbe1bb10a	-0.15204254
46	0xbdd7e726	-0.10542135
47	0x3cec90d6	0.028877657

976 f4 [96, 1, 1]
0	0xbe9e5f21	-0.30931953
1	0xbe0d1614	-0.13777953
2	0xbec1820f	-0.3779454
3	0xbe7a85dc	-0.24465126
4	0xbe1a8bfe	-0.15092465
5	0x3e2c1cce	0.16807863
6	0xbec27e37	-0.3798692
7	0x3c9146b6	0.017733913
8	0xbe5e1314	-0.21686965
9	0xbe5221e7	-0.20520745
10	0x3e26f7a8	0.16305411
11	0xbe9b691d	-0.30353633
12	0xbe14146f	-0.1446092
13	0x3e2f2b0e	0.17106268
14	0x3e2b2098	0.16711652
15	0xbe3e2028	-0.18566954
16	0x3e39b945	0.18137081
17	0xbeabdfa6	-0.33569068
18	0x3dc92752	0.09821953
19	0x3dd8eada	0.105916694
20	0x3ed1befd	0.40966025
21	0xbe492908	-0.19644558
22	0x3d766399	0.060153577
23	0xbc3d6fea	-0.011562327
24	0xbe4b976f	-0.19881986
25	0x3e08ba50	0.13352323
26	0xbd7827ed	-0.06058495
27	0xbedb9182	-0.4288445
28	0x3c16211e	0.009163169
29	0xbe052bd8	-0.13005006
30	0x3d15f7ab	0.036613148
31	0xbdc3206a	-0.09527667
32	0x3d4a1053	0.049331974
33	0xbea35398	-0.31899714
34	0xbe8ae494	-0.27127516
35	0xbec4b1bd	-0.38416854
36	0xbeaa5a8b	-0.33272204
37	0x354458d0	7.314493e-07
38	0x3b197717	0.002341693
39	0x3d26df76	0.040740453
40	0xbed64c9c	-0.41855323
41	0xbe952c8b	-0.29135546
42	0x80078957	-6.92117e-40
43	0xbeef2351	-0.46706632
44	0x3b04ebd3	0.0020282164
45	0x3a9cfb80	0.0011976808
46	0xbe2964e4	-0.16542393
47	0x3d8bca0d	0.068256475
48	0x3e7c5024	0.24639946
49	0x3c904d44	0.017614968
50	0x3f37bad9	0.7176948
51	0x3e9ef0bf	0.3104305
52	0x3e86698e	0.26252407
53	0x3d8790da	0.06619425
54	0xbee7f3a2	-0.45303065
55	0xbd24a209	-0.04019359
56	0x3cee8703	0.029117113
57	0x3c978834	0.018497564
58	0xbebdd71b	-0.37078175
59	0x3e0389a9	0.12845482
60	0xbc8d6f97	-0.017265124
61	0x3e35baa3	0.17746978
62	0x3ed2bf04	0.41161358
63	0x3ea8f2c0	0.32997704
64	0x3c1dea0d	0.009638322
65	0xbee563f3	-0.44802818
66	0x3cdb0fae	0.026740875
67	0x3f619a10	0.88125706
68	0xbe13dd6f	-0.14439939
69	0xbe28e955	-0.16495259
70	0x3ca197ec	0.019725762
71	0xbe30b56c	-0.17256707
72	0x3e5947cb	0.21218793
73	0x3e1235f1	0.1427839
74	0x3ece6d39	0.40317705
75	0x3e086989	0.13321508
76	0xbdbfb08a	-0.09359844
77	0xbe618601	-0.22023775
78	0x3c8e9383	0.017404323
79	0xbd5c9064	-0.05384864
80	0x3b5bb5a7	0.0033525021
81	0xbe25c949	-0.16190065
82	0x3db55ecb	0.08855971
83	0x3d5d4c8a	0.05402807
84	0x3d19d7a7	0.037559178
85	0x3cf6ae0d	0.03011229
86	0x3d08dd97	0.03341445
87	0x3d4c6984	0.049905315
88	0x3d4b2e8b	0.049604934
89	0x3d0a58a3	0.033775937
90	0xbc945f37	-0.018111808
91	0xbe861abc	-0.26192272
92	0xbdcdf125	-0.1005576
93	0x3e2d7e39	0.16942681
94	0x3e222092	0.15832737
95	0x3d60dbfd	0.054897297

977 f4 [48, 1, 1]
0	0x3d50df9e	0.050994508
1	0xbebbd9a8	-0.36689496
2	0xbea030d8	-0.31287265
3	0xbdd63aa8	-0.104604065
4	0xbe96b092	-0.29431587
5	0x3d91f361	0.07126499
6	0xbe4d2e57	-0.20037208
7	0xbe3aa649	-0.18227495
8	0x3dd7daf9	0.105398126
9	0x3d37513e	0.044755213
10	0x3da87b65	0.08226661
11	0x3e363d6e	0.17796871
12	0x3eb41284	0.35170376
13	0x3d3dbf93	0.046325278
14	0x3e23b823	0.15988211
15	0x3ce2047d	0.02759003
16	0xbe3f67b6	-0.18691906
17	0xbe4e1bc1	-0.20127775
18	0xbbd817c1	-0.0065946286
19	0xbd5452f9	-0.05183694
20	0x3d4a67ea	0.049415506
21	0x3e23885b	0.15969984
22	0x3d76fa15	0.06029709
23	0x3d06d194	0.032914713
24	0x3d1a3e76	0.037657224
25	0x3c40083c	0.011720713
26	0x3ea832f8	0.32851386
27	0xbd12e10c	-0.035859153
28	0x3e14a156	0.1451467
29	0xbd543c5f	-0.051815387
30	0x3e171227	0.14753018
31	0x00054f17	4.8755e-40
32	0x0004f864	4.56448e-40
33	0xbe7d696b	-0.24747245
34	0x000421b1	3.79428e-40
35	0x3d4e59e0	0.05037868
36	0x3e8556e4	0.26042855
37	0x3a68eb52	0.0008885163
38	0x3dcf6860	0.1012733
39	0x80065771	-5.82381e-40
40	0x3e3d76cf	0.18502353
41	0xbe189085	-0.1489888
42	0x3f7b7369	0.98222977
43	0xbe833b29	-0.25631073
44	0x3e9f5a37	0.31123516
45	0xbdbfeb1e	-0.09371017
46	0xbebf0c09	-0.3731387
47	0xbdf7d984	-0.12102035

978 f4 [48, 1, 1]
0	0x3eba8f18	0.36437297
1	0x000359df	3.07746e-40
2	0x3cce3ee9	0.025176482
3	0xbcaa3d81	-0.02078128
4	0x3c1c1115	0.009525557
5	0x3e25dc35	0.16197284
6	0x3be34d9c	0.006936742
7	0xbdad8411	-0.08472455
8	0x3d9efeae	0.0776342
9	0xbe3ff432	-0.18745497
10	0x3dde759b	0.10862275
11	0xbed7d0aa	-0.42151386
12	0x3de114ac	0.10990271
13	0xbdb37bc4	-0.08763841
14	0xbd435eb5	-0.04769774
15	0x3d94ca12	0.07265104
16	0x3e93cc50	0.28866816
17	0xbbc3e43b	-0.005978135
18	0xbd237c15	-0.039913256
19	0x3db8aac5	0.09016947
20	0xbd34767c	-0.044058308
21	0xbd833a76	-0.06407635
22	0x3d2e1621	0.042501573
23	0x3e7d72d6	0.24750838
24	0xbe57154e	-0.21004221
25	0x3dcd1583	0.10013869
26	0x3dd3a274	0.1033372
27	0x3e759eb8	0.23986328
28	0xbc8b27c7	-0.01698674
29	0x3e285af1	0.16440941
30	0x3e04381d	0.1291203
31	0x3dadd317	0.08487528
32	0xbe240bd3	-0.16020136
33	0x3d287983	0.041131508
34	0x3f00edaf	0.50362676
35	0x3e6a8ed7	0.22906052
36	0x0004c245	4.37033e-40
37	0xbd9ff8aa	-0.07811101
38	0xbe8aafe5	-0.27087322
39	0x0003d594	3.52124e-40
40	0x0000f43a	8.7612e-41
41	0xbe27cd21	-0.16386844
42	0x3efe0328	0.49611783
43	0x3eac89cc	0.3369888
44	0x3db71db3	0.089412116
45	0x3e8f0104	0.27930462
46	0x3ebed6f9	0.37273386
47	0xbe7f9311	-0.24958445

979 f4 [96, 1, 1]
0	0xb9415f36	-0.00018441383
1	0xbe37fdf0	-0.17967963
2	0xbe001c27	-0.1251074
3	0xbe88bdd4	-0.26707327
4	0xbda3efc6	-0.080047175
5	0xbe13dfc8	-0.14440835
6	0xbd0baa3b	-0.03409789
7	0xbd78ae2a	-0.06071297
8	0x3d510191	0.051026884
9	0xbda9322f	-0.08261525
10	0x8001b1e3	-1.55649e-40
11	0xbdeae266	-0.11468963
12	0xbe6c3094	-0.23065406
13	0xbda45662	-0.08024289
14	0xbdd072b0	-0.10178125
15	0x0003851a	3.23254e-40
16	0xbe6b9318	-0.2300533
17	0x3b9ff8b9	0.004881945
18	0xbe3d933b	-0.18513195
19	0xbe6f335f	-0.2335944
20	0xbed81c57	-0.42209122
21	0xbe907e5d	-0.28221408
22	0xbd3caf58	-0.04606566
23	0xbebdfb74	-0.37105906
24	0x3db1d57e	0.086832985
25	0x3d0f4f7c	0.03498791
26	0xbe2b5b71	-0.16734101
27	0x3e4132f7	0.18867098
28	0xbd8adb95	-0.06780163
29	0xbe119a3f	-0.14218996
30	0xbe1a4dfd	-0.15068813
31	0xbd16ac1f	-0.03678524
32	0xbcae6d94	-0.021292485
33	0xbaba637f	-0.0014220326
34	0xbd8b28db	-0.06794902
35	0x3dc432f3	0.0958003
36	0x3d0d3ea1	0.034483556
37	0xbd7a0c52	-0.061046906
38	0x3d9a8062	0.07544018
39	0xbe656618	-0.22402227
40	0xbd9df895	-0.07713429
41	0xbd992d47	-0.07479339
42	0xbdeb9efa	-0.11504932
43	0xbe723f69	-0.23657002
44	0x3cccc3d6	0.024995726
45	0xbeeaf231	-0.45887902
46	0xbce06465	-0.027391622
47	0xbe7bf517	-0.24605213
48	0xbd928cb5	-0.07155744
49	0x3e8854fe	0.26627344
50	0xbe7c7ed2	-0.24657753
51	0xbb07ad35	-0.0020702605
52	0x3de7ef4d	0.1132494
53	0xb9f74b3f	-0.00047167574
54	0xbea636da	-0.32463723
55	0xbeb597a4	-0.35467255
56	0x3b14793c	0.002265527
57	0xbcbdcbf1	-0.023168536
58	0x3eb0f790	0.34563875
59	0xbdac7251	-0.084202416
60	0xbd58be48	-0.05291584
61	0xbe0456b6	-0.12923703
62	0xbe36a02f	-0.17834543
63	0xbead6bfc	-0.33871448
64	0xbe488e7c	-0.19585603
65	0xbe3a7634	-0.18209153
66	0x3e90c1aa	0.28272754
67	0x3dbf029a	0.09326668
68	0xbe27734e	-0.16352579
69	0xbe978806	-0.29595965
70	0x00077b81	6.87153e-40
71	0x3db16636	0.08662073
72	0xbebe5233	-0.37172088
73	0xbe83c22f	-0.25734088
74	0xbd3855d9	-0.045003746
75	0xbe6c8f23	-0.23101477
76	0xbe94daf0	-0.29073286
77	0xbe1c4d60	-0.15263891
78	0xbe28df4e	-0.16491434
79	0xbe8fcd82	-0.28086478
80	0xbca9aeec	-0.020713292
81	0xbee8f5c5	-0.45500007
82	0xbda0e2f5	-0.078557886
83	0xbed848b1	-0.4224296
84	0xbd16b228	-0.036790997
85	0xbec89b41	-0.3918095
86	0x3dde96fb	0.10868641
87	0xbe0c6978	-0.13712108
88	0xbe2c8ae3	-0.16849856
89	0xbe8666d2	-0.2625032
90	0xbd523723	-0.051322114
91	0xbe5402f7	-0.20704256
92	0xbc2d64ba	-0.010583097
93	0xbeb52b00	-0.3538437
94	0x3ccfdbb6	0.025373321
95	0xbdba9d06	-0.09111981

980 f4 [48, 1, 1]
0	0xbe88fdf0	-0.2675624
1	0xbbc6292c	-0.0060473885
2	0x3e32a4d2	0.17445686
3	0x3ed0e57a	0.40800077
4	0xbe8c46e9	-0.2739785
5	0x3eb039a3	0.34418973
6	0x3ebffe03	0.37498483
7	0x3ef9bea7	0.4877827
8	0x3dc31a94	0.09526554
9	0x3d62d15a	0.055375434
10	0x3dce5c65	0.100762166
11	0x3e3129a5	0.17301042
12	0x3d824040	0.06359911
13	0x3e08d00f	0.13360618
14	0x3f090b6d	0.5353306
15	0xbd8ea279	-0.06964583
16	0x3d373ec9	0.04473761
17	0xbe36ab8b	-0.17838876
18	0x3e836f0c	0.2567066
19	0x3d438fbd	0.0477445
20	0x3d9209ea	0.07130797
21	0x3eaee3a8	0.34158063
22	0x3e4e761d	0.20162244
23	0x3e76d3dd	0.24104257
24	0xbe1ffcee	-0.15623829
25	0xbd29d567	-0.041463282
26	0x3f137dcc	0.57613826
27	0xbeea95b1	-0.4581733
28	0x3e636c10	0.22209191
29	0x3e1eb9d4	0.15500575
30	0x3e8f529e	0.2799272
31	0x3f0e42d1	0.55570704
32	0x3e079996	0.13242182
33	0xbea407ae	-0.3203711
34	0x3e832b6d	0.2561907
35	0x3f73ea5c	0.9527948
36	0x3e98fa14	0.29878294
37	0x3ec5e00b	0.38647494
38	0x3dc6de37	0.09710353
39	0x3ef6e13b	0.48218712
40	0x3f197a9b	0.59952706
41	0x00032698	2.89351e-40
42	0x3e8fb24e	0.28065723
43	0x3ea14656	0.31498975
44	0x3e2555f8	0.16146076
45	0x3efc8542	0.49320418
46	0x3d9bca9d	0.07607005
47	0x3f1ddef2	0.6166831

981 f4 [48, 1, 1]
0	0x3e939f2a	0.2883237
1	0xbe888981	-0.26667407
2	0x3daacc80	0.083397865
3	0xbe2ebe21	-0.17064716
4	0x3e5dbcab	0.21654002
5	0x3e9007b2	0.2813087
6	0xbe6cb28d	-0.23114987
7	0xbed073e0	-0.40713406
8	0xbe8d11d0	-0.27552652
9	0x3e7b966b	0.24569099
10	0x3e09acd0	0.13444829
11	0x3d0b4269	0.03399888
12	0x3e5f8c13	0.21830778
13	0x3e0b8331	0.13624264
14	0xbd6215f0	-0.055196702
15	0x3e748f44	0.23882776
16	0x3c46cef8	0.012134306
17	0x3e0e25d5	0.1388162
18	0x3e524158	0.20532739
19	0xbeab3464	-0.33438408
20	0xbd9f594e	-0.077807054
21	0x3e4f8c8b	0.20268457
22	0x3e3ec036	0.1862801
23	0xbeb5f4cd	-0.3553833
24	0xbecf34c5	-0.40469947
25	0x3d1b3da8	0.037900597
26	0x3d8c694f	0.068560235
27	0x3eb122c9	0.3459685
28	0x3eca6fad	0.39538327
29	0x3db0e8c7	0.08638149
30	0x3ed0a9cc	0.40754545
31	0xbdf853a1	-0.12125326
32	0x3e1abcae	0.15111038
33	0xbe850be9	-0.2598565
34	0x3d0117b5	0.03151675
35	0x3e6182ca	0.22022548
36	0x3e67158a	0.2256681
37	0xbe21bdda	-0.15795079
38	0x3f07ab41	0.5299569
39	0xbe1a36cb	-0.15059964
40	0x3e83f266	0.25770873
41	0xbe3da6ff	-0.18520735
42	0x3e6e0399	0.2324356
43	0xbeb66c2e	-0.3562941
44	0x3db43665	0.087994374
45	0xbd81ea37	-0.06343501
46	0x3d8f4246	0.069950625
47	0x0004d56b	4.43902e-40

982 f4 [96, 1, 1]
0	0x3e933893	0.287541
1	0xbedb7f59	-0.42870596
2	0xbebd2d70	-0.3694873
3	0xbecc0f3b	-0.3985537
4	0x3933bdd0	0.00017141481
5	0xbee19c83	-0.4406472
6	0xbee63227	-0.44960138
7	0xbec0518d	-0.37562218
8	0xbe95bc1a	-0.29245073
9	0xbeb1dd3b	-0.34739098
10	0xbf0c14c2	-0.54719174
11	0x3aeeef53	0.0018229283
12	0x800312e7	-2.82287e-40
13	0x3e512adb	0.20426504
14	0x3c0543cc	0.00813384
15	0x80031e22	-2.86316e-40
16	0xbf048d8b	-0.5177848
17	0x3d73ce86	0.059523128
18	0x3d63ba0e	0.055597357
19	0xbf08489f	-0.5323581
20	0xbe50958a	-0.20369545
21	0xbee68cd0	-0.45029306
22	0xbea66177	-0.32496235
23	0xbe9bba4d	-0.30415574
24	0xbdc77f6f	-0.09741103
25	0x3cd387b4	0.025821544
26	0x000267f3	2.20961e-40
27	0x3e54e6c6	0.20791158
28	0x3cad733f	0.021173118
29	0xbf07a581	-0.52986914
30	0xbcd8a4c5	-0.026445756
31	0xbebd78e4	-0.37006295
32	0xbea71213	-0.32630977
33	0x3c136a01	0.008997441
34	0xbeef5b5c	-0.4674939
35	0x3b59c881	0.0033231082
36	0xbcb61efa	-0.022231568
37	0xba705e7d	-0.0009169353
38	0xbe253233	-0.1613243
39	0xbe20a7fd	-0.15689082
40	0xbedb559a	-0.42838746
41	0x36eea786	7.112455e-06
42	0x3bc1932e	0.0059074378
43	0x3bcbef7b	0.0062236167
44	0xbe9e8f4c	-0.30968702
45	0x3ac418d5	0.0014961014
46	0xbc5320b1	-0.012886212
47	0xba60cff9	-0.0008575912
48	0x3c47b944	0.012190167
49	0xbef9815c	-0.48731506
50	0xbed94a77	-0.42439625
51	0xbe349e1e	-0.17638442
52	0xbd04b8c6	-0.032402776
53	0xbf0eb550	-0.5574541
54	0x3c5eceb1	0.013599084
55	0xbc0ba82f	-0.008523985
56	0xbe12e172	-0.14343813
57	0x3b86e89b	0.004117084
58	0xbec40e7e	-0.38292307
59	0xbea09006	-0.3135988
60	0x3e0c2de9	0.13689388
61	0xbdddd8a5	-0.10832337
62	0xbe0d8d5a	-0.13823453
63	0xbeaef309	-0.34169796
64	0x0000313f	1.7666e-41
65	0xbd20e0ec	-0.039277002
66	0xbf2489aa	-0.6427256
67	0xbf35125b	-0.70731133
68	0x3d767ce3	0.060177695
69	0x3c068a31	0.008211658
70	0x3ed96a27	0.424638
71	0xbca87d66	-0.020567607
72	0xbd0178eb	-0.031609457
73	0xbe25bd0a	-0.16185394
74	0x3d81a25f	0.06329798
75	0xbe9e572c	-0.30925882
76	0x3b3af998	0.0028530117
77	0xb9a7bc30	-0.00031992933
78	0x3e0fd3a7	0.14045583
79	0xbe86ec44	-0.2635213
80	0x3cf53578	0.029932722
81	0xbed25548	-0.4108069
82	0xbbb790a9	-0.0056019616
83	0x3db00310	0.08594334
84	0x3b3c314c	0.0028715907
85	0x3a30eeac	0.0006749432
86	0x000130fb	1.09406e-40
87	0x3e8a1d74	0.26975596
88	0x3afa79cd	0.0019109786
89	0x3eabebc3	0.3357831
90	0x3e88d5e2	0.2672568
91	0xbe2aac33	-0.16667251
92	0x3dcbbb13	0.09947791
93	0xbe1c9156	-0.15289816
94	0xbcfeecd6	-0.031118792
95	0x0002fa9f	2.73577e-40
